autoencoder.pth (torch, 3824 bytes, 8 tensors)

encoder.0.weight f4 [6, 9]
00000000: 4e6b e13d 29a2 b7be bfaa 9c3e 3969 9ebe
00000010: f12b be3c 782b bcbd fd20 113e 5bb2 86be
00000020: b25c 8b3e 3326 e33d 3063 83be fe36 f0bd
00000030: 7f62 2c3c f74f 363e 0198 863c ea46 25be
00000040: d360 1d3d 2e7a 8ebe 48c7 b8be 101c 423c
00000050: 306f 0abe 2172 8e3e 3266 833e 9e02 373d
00000060: 51eb dd3d 4d2d 84be 6c65 90be 3f18 3b3e
00000070: 459f 053e fc3e 7c3e d373 b5be 73b4 8bbe
00000080: 93ba a5be 88e1 c4be 121b 8dbe 230d 1fbe
00000090: 0931 643e 08d2 a5bb d41c 0abd 52c3 1ebe
000000a0: 9a82 763e d00c 1a3e bb3f a03e 45ba 05be
000000b0: f41d 0a3e 1b8d 97be 5db0 013e 4692 3e3e
000000c0: 2780 7bbd d022 873e e34d 5dbe b984 a2be
000000d0: 5e3f 513e 55e3 d1bd
0.11006795 -0.35865906 0.3059902 -0.30939654 0.023214312 -0.091879785 0.1417274 -0.2630795
0.27219158 0.1109127 -0.25661612 -0.11729239 0.01052153 0.17803942 0.016429903 -0.16140333
0.038422417 -0.2782759 -0.3608954 0.011847511 -0.13518977 0.27821448 0.25663906 0.04468023
0.10835899 -0.25815812 -0.2820238 0.18270968 0.13049038 0.24633402 -0.3543993 -0.2728611
-0.32368907 -0.38453317 -0.27559716 -0.15532355 0.2228433 -0.005060438 -0.0337189 -0.15504196
0.24073258 0.1504395 0.31298622 -0.13059337 0.13487989 -0.29599842 0.12664934 0.18610486
-0.061401512 0.26393747 -0.21611743 -0.31741884 0.20434329 -0.10248438

encoder.0.bias f4 [6]
00000000: 5e30 233e 2bcd fbbd ed8f 123e 8cc5 223d
00000010: 9203 82be d4b5 683e
0.1593642 -0.12294992 0.14312716 0.039739177 -0.2539335 0.22725612

encoder.2.weight f4 [3, 6]
00000000: 7dd1 b43e b7ff 90be 7d31 283e b79e 92be
00000010: 8d50 b33c ce03 cb3e 4bd8 a43e 90f2 97bc
00000020: 0257 7d3e 4c7e 17be 427f 72be ceaf 6a3e
00000030: ae29 1c3e e98a db3e bc68 38be bfb4 d13e
00000040: 08a1 53bd b455 d8be
0.35316077 -0.28320095 0.16425128 -0.28636715 0.021888996 0.3965134 0.32196268 -0.01854828
0.24740222 -0.14794272 -0.23681358 0.22918627 0.15250275 0.42879418 -0.18008703 0.4095821
-0.051667243 -0.42252886

encoder.2.bias f4 [3]
00000000: c37c 143e f4db a73e 1a1a c83e
0.14500718 0.32784998 0.39082414

decoder.0.weight f4 [6, 3]
00000000: 1e68 ad3e 9187 453e 2925 873c 3a0c 0abf
00000010: 0a4f f63e 791a 0a3f 9d6f 073f ddf1 60bd
00000020: 6d6f b1bb 8112 d9bc 93be a1be 6d55 043e
00000030: 6d85 0c3e 0a09 933d f317 193f 3c28 d03e
00000040: a05d 40be 9545 f53d
0.33868498 0.19289996 0.016497212 -0.53924906 0.48107177 0.53946644 0.52904683 -0.05491816
-0.0054148943 -0.026498081 -0.3159071 0.12923212 0.13722773 0.071794584 0.5980217 0.40655696
-0.18785715 0.11976162

decoder.0.bias f4 [6]
00000000: 63ec c9bd bf62 8f3e 9030 8d3d 5e82 f4bd
00000010: 2505 7dbe 6c67 243e
-0.0985954 0.28005025 0.06894028 -0.11938928 -0.24708994 0.16055077

decoder.2.weight f4 [9, 6]
00000000: 5fac b8be 9596 a43e 5eeb c4be dec4 97be
00000010: a604 cd3e 9261 8cbd 223d 863e c558 2c3e
00000020: 7953 0b3e b99c ab3d 0446 dabe d8c5 78be
00000030: e70f ef3d 3f64 073e 5dd6 c03e f84e 563e
00000040: 03b7 b0bd b12a a6be 4a3e 14be 5d89 ccbd
00000050: 33f7 2bbe bf45 e33e 7412 303e 5a20 a43c
00000060: e85e e2bc 39af 4f3e c459 8abd c178 d3bd
00000070: 7883 323e 4652 b3be 7b44 35be 44be b2bd
00000080: 3de2 903d 1e7f b1bd 4495 a4be de62 ccbd
00000090: ff64 0abd b7e2 88be a785 af3e 0159 1fbe
000000a0: 3475 0f3e 251b e23e de07 a93e 5f09 0fbe
000000b0: 9c20 aabe d57e 9bba 258b 703d 1ab4 813d
000000c0: e85b 5ebe 3a4e c2be 7eb2 9c3e 1ac8 07be
000000d0: 2988 80be 9cef cd3c
-0.3606901 0.32146135 -0.3846082 -0.29642385 0.4004261 -0.068545476 0.26218516 0.16830738
0.13606061 0.08379502 -0.42631543 -0.24294221 0.11672955 0.13221835 0.37663546 0.20928562
-0.08628657 -0.32454446 -0.14476886 -0.099871375 -0.16793518 0.4438915 0.1719454 0.020034958
-0.027633145 0.20281686 -0.06755403 -0.10325766 0.17432964 -0.35023707 -0.17701904 -0.087276965
0.070744015 -0.08666824 -0.3214513 -0.09979795 -0.033787724 -0.2673547 0.34281656 -0.15561296
0.14009553 0.44161335 0.33013815 -0.13968419 -0.33228004 -0.001186336 0.05872645 0.0633318
-0.21714747 -0.37950307 0.3060493 -0.13259926 -0.25103882 0.025138669

decoder.2.bias f4 [9]
00000000: 22a1 7e3d 0dc7 9ebd 18ef 9fbe 73c4 a73e
00000010: 4336 2fbe e416 683e f5ff 85bd 713a 203d
00000020: d89e 2c3e
0.062165387 -0.0775281 -0.31237102 0.32767066 -0.17110543 0.22664982 -0.065429606 0.039118234
0.16857469
