autoencoder.pth (torch, 3824 bytes, 8 tensors)

encoder.0.weight f4 [6, 9]
0	0x3e8fa02a	0.28051883
1	0x3e99d4de	0.30045217
2	0x3e30a21d	0.17249341
3	0x3df7f4c4	0.12107232
4	0xbd8aba79	-0.06773848
5	0x3e2c0594	0.16799003
6	0x3e0bf120	0.136662
7	0xbe9ad0e6	-0.30237502
8	0x3d1e6c2e	0.038677387
9	0xbcd742ef	-0.026277034
10	0xbe8bc26a	-0.27296764
11	0xbdd0f613	-0.10203185
12	0x3dad2966	0.08455162
13	0x3dd8aade	0.10579465
14	0x3e991920	0.2990198
15	0x3eaf7f32	0.3427673
16	0xbdb07ba3	-0.08617332
17	0x3eb18b50	0.346766
18	0x3e3e2fcf	0.18572925
19	0xbda032c0	-0.0782218
20	0x3dd87186	0.10568528
21	0xbe1e1f4e	-0.1544163
22	0xbe906d1b	-0.2820824
23	0xbe2b232d	-0.16712637
24	0xbe67ef7d	-0.22649951
25	0x3e1426c1	0.14467908
26	0x3e57dc61	0.21080162
27	0x3c8d6e94	0.017264642
28	0xbe7d6b46	-0.24747953
29	0x3d61bb4b	0.055110257
30	0xbe3b38d4	-0.18283397
31	0xbe927c4f	-0.28610465
32	0xbe99468d	-0.29936638
33	0xbe659d04	-0.22423178
34	0xbe67421a	-0.2258381
35	0xbd77fe20	-0.060545087
36	0x3ddc780a	0.10765083
37	0xbeb439b4	-0.35200274
38	0x3cf7aec1	0.030234696
39	0xbe3f57a0	-0.1868577
40	0x3e2ec375	0.17066748
41	0xbe9db180	-0.30799484
42	0x3e41b615	0.18917115
43	0xbe39a7e0	-0.18130445
44	0xbea27ca8	-0.3173573
45	0x3b8e9dca	0.004352306
46	0xbe8e6b32	-0.2781616
47	0x3e9f5774	0.3112141
48	0xbd71da99	-0.05904636
49	0xbea1a504	-0.3157121
50	0xbe830003	-0.25585946
51	0x3e9ca1ba	0.30592138
52	0xbe250be0	-0.16117811
53	0xbe2aa4b9	-0.16664399

encoder.0.bias f4 [6]
0	0x3d5281e9	0.051393423
1	0x3df2a738	0.11848301
2	0x3eb4413f	0.3520603
3	0x3d2693f1	0.04066843
4	0xbd7a066b	-0.061041277
5	0x3e700870	0.23440719

encoder.2.weight f4 [3, 6]
0	0xbdfab634	-0.12241784
1	0xbd7033d9	-0.058643196
2	0x3d97b802	0.074081436
3	0xbe1aa311	-0.15101267
4	0xbea922d5	-0.33034387
5	0xbed847ab	-0.42242178
6	0xbe77d01a	-0.24200478
7	0x3d4ac38e	0.0495029
8	0xbe8deab6	-0.27718133
9	0xbe9ad5ef	-0.30241343
10	0xbe619622	-0.22029927
11	0x3c8b7f71	0.017028542
12	0xbe0088ad	-0.12552138
13	0x3ea51189	0.3223994
14	0xbe0693d2	-0.13142326
15	0x3ed67faa	0.41894275
16	0xbd5f41f3	-0.054506253
17	0x3e4c0c1c	0.19926494

encoder.2.bias f4 [3]
0	0xbd400e0f	-0.046888407
1	0x3e59bd53	0.21263628
2	0xbeb4b9f0	-0.3529811

decoder.0.weight f4 [6, 3]
0	0x3e12b9c6	0.1432868
1	0x3ead4f0e	0.33849376
2	0x3ef7ed9d	0.48423472
3	0x3f1b0785	0.6055835
4	0x3f070bd7	0.5275244
5	0x3e251327	0.16120587
6	0x3e49c281	0.19703104
7	0x3dfa0cbe	0.12209462
8	0xbeb71025	-0.35754505
9	0xbdcd3399	-0.10019607
10	0xbe0ce797	-0.1376022
11	0x3e21514d	0.1575367
12	0x3ec1955d	0.37809268
13	0x3e9c64c2	0.30545622
14	0xbd78c35c	-0.060733184
15	0x3f12e91d	0.5738695
16	0x3d84f8b0	0.06492746
17	0x3e4e171f	0.20126007

decoder.0.bias f4 [6]
0	0x3e83d561	0.25748733
1	0x3eb986e0	0.36235714
2	0xbc225406	-0.009907728
3	0xbefe15ee	-0.49626106
4	0x3e3ce394	0.18446189
5	0xbecc941b	-0.39956746

decoder.2.weight f4 [9, 6]
0	0xbed3cb57	-0.41366073
1	0xbe7bc2a7	-0.24585973
2	0xbe917687	-0.28410742
3	0x3d42166a	0.047384657
4	0xbe244631	-0.16042401
5	0x3eafe33e	0.3435306
6	0xbe9cc3c7	-0.30618116
7	0x3e3e8bcc	0.18608016
8	0xbe036944	-0.12833124
9	0xbe953726	-0.29143637
10	0x3e40f5ee	0.18843815
11	0xbe824621	-0.2544413
12	0x3e278821	0.16360523
13	0x3e1f3a28	0.15549529
14	0xbee47d16	-0.44626683
15	0x3e5f66ff	0.21816634
16	0xbd6e6d70	-0.058209836
17	0xbe3aa52a	-0.18227068
18	0xbdacdd65	-0.08440665
19	0x3deae613	0.114696644
20	0xbb853cd6	-0.00406609
21	0x3e8e3241	0.27772716
22	0x3ded76ca	0.11594923
23	0xbebb5bb9	-0.36593416
24	0x3e888c1a	0.2666939
25	0xbd33674e	-0.04379969
26	0x3eabe0cd	0.33569947
27	0xbeb04b0c	-0.34432256
28	0xbe4b9a96	-0.19883189
29	0x3d3346a2	0.043768533
30	0x3eb05d46	0.34446162
31	0x3eab91d1	0.33509687
32	0xbd8be5cd	-0.068309404
33	0xbe03a84a	-0.12857166
34	0xbdd8594c	-0.10563907
35	0x3eb94db1	0.36192086
36	0x3e0f4282	0.13990214
37	0x3e9ea2cf	0.30983588
38	0x3e9dabae	0.30795044
39	0x3e91544a	0.2838462
40	0xbd7696be	-0.060202353
41	0xbec6e8cd	-0.38849488
42	0x3ba7121a	0.0050985934
43	0xbd23eb9e	-0.040019624
44	0xbead53fc	-0.33853137
45	0x3ec3cd68	0.3824265
46	0xbb9869d1	-0.004651286
47	0xbe03e6cf	-0.12881015
48	0x3e9d908f	0.30774352
49	0xbe11fd1f	-0.14256714
50	0xbee2aa83	-0.44270715
51	0x3e2c13f1	0.16804482
52	0x3deecf66	0.11660652
53	0xbd831ca8	-0.0640195

decoder.2.bias f4 [9]
0	0x3e0bba9c	0.13645405
1	0xbdfb4e4d	-0.12270794
2	0x3e8f09fc	0.27937305
3	0xbdf8be28	-0.121456444
4	0xbcd9eecb	-0.026603123
5	0xbe0b3c23	-0.13597159
6	0x3e32e346	0.1746951
7	0xbe5ef967	-0.21774827
8	0x3c7a2741	0.015268148
