autoencoder.pth (torch, 3824 bytes, 8 tensors)

encoder.0.weight f4 [6, 9]
0.32751614 0.16736889 -0.34659016 0.17031972 -0.0909833 -0.015262268 -0.115605325 -0.08761642
0.2834975 -0.08567589 0.2218985 0.07308106 0.10773556 0.21666986 -0.2073624 0.12915996
0.17662156 0.13242406 0.09409717 -0.25653902 0.28048527 0.25069344 0.053571135 -0.22639544
-0.034891948 -0.021886181 0.0020895982 -0.08503846 0.0813032 -0.038880453 0.20518957 -0.12112798
-0.2985826 0.3345828 0.27823412 0.21490707 0.2671799 -0.23066786 -0.36580718 -0.24566741
0.09177586 -0.24868385 -0.18409522 0.2697971 0.029461302 -0.12442771 -0.21079408 0.21022752
0.13046837 -0.029021084 -0.16384144 0.08437405 0.3688087 0.2157022
00000000: 32b0 a73e c062 2b3e 4474 b1be 4b68 2e3e
00000010: 7455 babd 970e 7abc 7cc2 ecbd 3d70 b3bd
00000020: 9626 913e d776 afbd 5c39 633e 86ab 953d
00000030: 76a4 dc3d b4de 5d3e cf56 54be 8242 043e
00000040: 48dc 343e 2c9a 073e 04b6 c03d 1559 83be
00000050: c49b 8f3e e45a 803e 686d 5b3d 35d4 67be
00000060: dcea 0ebd a64a b3bc a4f1 083b a528 aebd
00000070: 4b82 a63d 1c41 1fbd 371d 523e f211 f8bd
00000080: d2df 98be 704e ab3e b474 8e3e 9910 5c3e
00000090: cecb 883e 3234 6cbe 144b bbbe 3d90 7bbe
000000a0: fbf4 bb3d fba6 7ebe 7583 3cbe d822 8a3e
000000b0: d458 f13c f5d3 febd 67da 57be e245 573e
000000c0: 8099 053e a0bd edbc 0dc6 27be 4dcc ac3d
000000d0: 7ed4 bc3e 0ae1 5c3e

encoder.0.bias f4 [6]
-0.16214383 -0.04227421 -0.3768886 0.27541107 -0.2831322 0.24313572
00000000: 0809 26be b927 2dbd 8bf7 c0be ae02 8d3e
00000010: b4f6 90be 92f8 783e

encoder.2.weight f4 [3, 6]
-0.05147674 0.11892455 -0.16409744 -0.050370146 -0.18776561 0.2804069 0.27559975 0.24179038
-0.25558007 -0.3756725 -0.032558333 0.16393968 0.24417847 -0.23196198 0.13569804 -0.05915614
0.36308688 -0.39319918
00000000: 46d9 52bd b78e f33d 2909 28be ed50 4ebd
00000010: a145 40be 7e91 8f3e 691b 8d3e e697 773e
00000020: 64db 82be 2558 c0be e35b 05bd cedf 273e
00000030: ec09 7a3e 7187 6dbe 6df4 0a3e b54d 72bd
00000040: 86e6 b93e 6751 c9be

encoder.2.bias f4 [3]
0.33997914 -0.16493246 -0.31229767
00000000: bf11 ae3e 0ee4 28be 7be5 9fbe

decoder.0.weight f4 [6, 3]
0.06259909 -0.28501615 0.37945768 0.27310592 0.0026647905 0.024105383 -0.5635093 0.066028416
0.29646862 0.22634718 -0.3901472 -0.21624468 -0.20198147 -0.083821565 0.20207699 0.1985562
-0.20249835 -0.55002826
00000000: f433 803d a3ed 91be 4748 c23e 8ad4 8b3e
00000010: c4a3 2e3b a778 c53c 2542 10bf e839 873d
00000020: bcca 973e 8ec7 673e 60c1 c7be 3f6f 5dbe
00000030: 3bd4 4ebe a4aa abbd 45ed 4e3e 5152 4b3e
00000040: ba5b 4fbe a7ce 0cbf

decoder.0.bias f4 [6]
-0.37741894 0.4598178 -0.49220973 0.15802334 -0.19998626 -0.37082934
00000000: 0e3d c1be 3d6d eb3e ea02 fcbe dfd0 213e
00000010: 33c9 4cbe 58dd bdbe

decoder.2.weight f4 [9, 6]
-0.22301517 -0.052881546 0.011409551 0.23715517 -0.42678693 0.12837693 -0.28987578 0.0020832708
0.3067819 0.31794927 0.19299923 -0.19132093 -0.37582102 0.108095706 -0.18765602 0.03736755
-0.124811664 0.16944249 -0.26498023 0.068617195 -0.18605654 -0.26192456 0.217183 0.07800863
0.3821221 0.16778229 -0.3316775 0.21915539 0.1346653 0.46075994 0.01521662 0.28526524
-0.35601982 -0.23824745 -0.062033772 -0.017813282 -0.104029715 0.09168536 0.3085786 0.22697322
0.36137977 0.41262773 0.20945087 0.3737887 -0.2606331 -0.2044266 -0.32984385 0.06520912
0.19823083 0.25148913 0.1963883 0.099190146 -0.42066252 0.1959921
00000000: 175e 64be 529a 58bd 20ef 3a3c ced8 723e
00000010: d183 dabe 3e75 033e 996a 94be 7c87 083b
00000020: 8412 9d3e 3fca a23e 97a1 453e a2e9 43be
00000030: 9d6b c0be 4861 dd3d e628 40be b70e 193d
00000040: 429d ffbd 5582 2d3e 7dab 87be 2c87 8c3d
00000050: 9b85 3ebe fa1a 86be 3865 5e3e fdc2 9f3d
00000060: 82a5 c33e 1fcf 2b3e a2d1 a9be 456a 603e
00000070: b3e5 093e bae8 eb3e 214f 793c 490e 923e
00000080: 3b48 b6be 24f7 73be 2017 7ebd 29ed 91bc
00000090: 880d d5bd 89c5 bb3d 04fe 9d3e ab6b 683e
000000a0: c506 b93e f143 d33e 4a7a 563e 3c61 bf3e
000000b0: b471 85be 3555 51be 4be1 a8be 5c8c 853d
000000c0: 06fd 4a3e 2fc3 803e 041a 493e 3424 cb3d
000000d0: 1461 d7be 27b2 483e

decoder.2.bias f4 [9]
0.1358217 0.27147067 0.012508638 -0.018773604 0.056171656 -0.281198 0.20051448 -0.10970392
-0.3089106
00000000: d814 0b3e 34fe 8a3e 08f1 4c3c 1acb 99bc
00000010: 4014 663d 2ff9 8fbe ab53 4d3e 73ac e0bd
00000020: 8829 9ebe
