gcn.pth (torch, 2608 bytes, 4 tensors)

conv1.weight f4 [9, 16]
000000 2c 6c 7c be 50 e1 eb bd 8c dc 3c be b9 07 0d bf
       -0.2465064 -0.11517584 -0.18443507 -0.5508991
000010 3b 0d db bd 8f a3 5b 3e 3a 25 13 3e fd e9 f1 3d
       -0.10695883 0.21449111 0.1436967 0.11812208
000020 b7 d8 b4 be d7 30 bb 3d ce 58 e1 bc e9 db f0 be
       -0.3532159 0.09140175 -0.027508166 -0.47042778
000030 cb b2 98 be b3 9d ba 3e 14 03 ab be 0e 54 1a be
       -0.29823908 0.3644844 -0.33400786 -0.15071127
000040 8f 30 1c bf 6a 19 21 be 4a c8 67 3e af 5e 47 bd
       -0.61011595 -0.15732351 0.22634998 -0.04867428
000050 36 34 a6 be 9a 63 52 3d 3a 5f 34 be 8d 1b cf be
       -0.3246171 0.05136452 -0.17614451 -0.40450707
000060 35 35 5e 3e 12 72 14 3c fb 2e da be b2 03 bd bc
       0.21699984 0.0090604 -0.42613968 -0.023073051
000070 19 66 17 bf e1 70 cf 3e 9a af e9 bd a7 af 03 bf
       -0.59140164 0.40515807 -0.114104465 -0.514399
000080 6c 17 80 be e2 09 08 be 3f f5 da 3e ba 27 21 bf
       -0.2501787 -0.1328502 0.42765233 -0.6295124
000090 71 0b fa be 49 0a ee be d5 8a f7 be 42 b9 b2 bc
       -0.48836854 -0.46492222 -0.48348108 -0.021816853
0000a0 eb 3f b5 3e b4 ee 12 be fb c1 2b be f0 28 f4 3d
       0.35400328 -0.1434887 -0.16773216 0.11921871
0000b0 98 e9 2b 3c da eb 33 be 9e 91 24 3e dc 6a 04 bf
       0.010492705 -0.17570439 0.16071174 -0.51725554
0000c0 d6 8c 04 be 08 1c 9d be c2 ee ee be 50 ee 3a bd
       -0.1294435 -0.3068545 -0.46666533 -0.04563743
0000d0 77 72 77 3e fe d7 a3 3d 11 a9 a3 be 9b 3d a1 be
       0.24164759 0.080001816 -0.31964925 -0.31492314
0000e0 95 f6 73 3e 34 9f 44 be 15 99 23 be d3 5b 8c 3d
       0.23824532 -0.19201356 -0.15976365 0.068534516
0000f0 d3 c2 3b 3e e2 f2 7f 3e ec e3 bf 3d 47 4f 3e be
       0.18336038 0.24994996 0.093696445 -0.1858493
000100 cf c2 87 3e 30 89 bc be a0 b9 85 be f1 30 ec be
       0.26515815 -0.36823416 -0.26118183 -0.4613109
000110 d5 02 d2 be 6f 80 8f be 94 17 19 be 4a 48 f5 be
       -0.41017786 -0.28027675 -0.149504 -0.47906715
000120 36 53 d8 be 80 0e 03 bf bc 90 de bd 41 b6 af be
       -0.42250985 -0.51194 -0.1086745 -0.34318736
000130 7c d9 21 be 8e 1d 23 3e 51 5b 56 3e 97 d4 f5 be
       -0.1580562 0.15929243 0.20933272 -0.48013756
000140 df 88 95 be 20 a1 6f be e5 fe e1 be 17 62 1b bf
       -0.29205987 -0.23401308 -0.44139782 -0.6069655
000150 e7 98 c0 bb c0 41 e0 be 16 d7 cb be 2c 32 7e be
       -0.0058776024 -0.43800163 -0.39812535 -0.24823827
000160 85 81 67 bd 97 28 15 bf d5 44 df be 02 a0 59 be
       -0.056520004 -0.5826506 -0.43607202 -0.21252444
000170 1d a8 7a 3e 60 f2 54 bc 06 8b f1 be 6c 60 a7 bd
       0.24478193 -0.01299724 -0.4717638 -0.08172688
000180 cb 72 61 3e 06 a1 83 be 1c f7 8d 3d a3 94 94 be
       0.22016446 -0.2570879 0.06931898 -0.2901965
000190 12 2f 0d bf 94 81 c6 3e 1a c5 b6 be 4b 11 bf bd
       -0.5514995 0.38770735 -0.35697252 -0.0932947
0001a0 78 ce b1 3e 04 e2 3a be da 88 32 3d 4f 2b 05 3e
       0.34727836 -0.1825028 0.043587543 0.13004802
0001b0 d3 82 18 bd 99 50 9b 3e 18 90 96 3d e5 cd e0 3d
       -0.03723414 0.3033493 0.073517025 0.10976771
0001c0 4c 98 0b be 5c 86 5e be de 3c ba be a7 fb 3f 3e
       -0.13632315 -0.21730942 -0.36374563 0.18748342
0001d0 82 4b f7 be 79 de 9d be 68 c4 31 bd 18 21 07 3e
       -0.48299795 -0.30833796 -0.0434002 0.13196218
0001e0 d4 25 88 3d 0f 4f a7 bc fb 6b 87 3d f6 ca aa bd
       0.0664784 -0.02042344 0.066123925 -0.08339493
0001f0 1e 80 b2 be b2 3a e0 be 36 ef 0b be fb 13 87 3e
       -0.3486337 -0.4379478 -0.1366547 0.2638243
000200 11 a4 ba 3e 76 16 b2 be a8 a9 e9 be 2b 83 7e 3e
       0.36453298 -0.3478276 -0.4563725 0.24854724
000210 9d 3d 7e bd 8b fd 95 be d4 05 a6 3d b9 e7 58 3e
       -0.062070478 -0.29295 0.081065804 0.21182145
000220 9d 72 99 3d c3 d6 79 be 15 6b 9c 3e 9e 48 4e be
       0.07492564 -0.24398331 0.30550447 -0.20144889
000230 5f cf ab be 97 50 88 3e 8c 12 ec 3d 57 54 09 3e
       -0.3355665 0.26623985 0.11526975 0.1341108

conv1.bias f4 [16]
000000 a4 88 1c be 00 00 00 00 00 00 00 00 c1 0b 31 be
       -0.152865 0.0 0.0 -0.1728964
000010 95 df 0a be 56 0d 6e bd 00 00 00 00 92 f6 ec bd
       -0.13561852 -0.058118187 0.0 -0.11570467
000020 25 bc 83 3c 52 0c fc bd b8 c0 8f bb bc ae 1f be
       0.016080925 -0.123070374 -0.0043869875 -0.15594
000030 74 cb 11 be 00 00 00 00 50 0e 74 be ad fa da bd
       -0.14237767 0.0 -0.23833585 -0.10692344

conv2.weight f4 [16, 2]
000000 9a 02 9d 3c 5d 39 80 3e bb 28 98 be 1a 2d dd be
       0.01916628 0.25043765 -0.29718575 -0.43198472
000010 e0 90 56 bd ad 5a eb be 03 e9 11 3f 51 e4 b5 3e
       -0.052384257 -0.45967618 0.5699617 0.35525754
000020 b9 07 92 3c 34 6a b0 3e 89 0a dd 3d 77 6d b1 bc
       0.017825948 0.34456027 0.10793025 -0.021658642
000030 53 71 0b bf e1 61 fd be 5e b6 cf 3e 6a 93 c0 3e
       -0.54469794 -0.49488738 0.40568823 0.37612468
000040 e8 34 e6 bd ef 9d 15 be 63 3c b7 3e 9c 27 1f 3e
       -0.1124056 -0.14611028 0.3578826 0.15542454
000050 83 0e 1f 3e 26 f8 69 be 9c 8e c6 be d6 0f 0f bf
       0.1553288 -0.22848567 -0.38780677 -0.5588354
000060 d0 8f 81 be b5 4c 2b be e6 72 95 be 3c e4 96 be
       -0.25305033 -0.1672848 -0.29189223 -0.29471004
000070 15 4b b9 3e 99 62 4b 3e d4 36 9d 3c 77 ab 36 be
       0.36190096 0.19861831 0.019191183 -0.17838846

conv2.bias f4 [2]
000000 90 5b e4 3d 90 5b e4 bd
       0.11150277 -0.11150277
