gcn.pth (torch, 2608 bytes, 4 tensors)

conv1.weight f4 [9, 16]
0	0x3eedbc1f	0.46432588
1	0xbdfdadc5	-0.123866595
2	0x3db6a719	0.0891859
3	0xbe68950e	-0.2271311
4	0xbeb7a8da	-0.3587101
5	0x3f17ba07	0.5926823
6	0xbe33e4a6	-0.17567691
7	0x3ef0ef32	0.47057492
8	0x3e1dc41a	0.15406838
9	0x3dbeec0f	0.09322368
10	0xbf15a624	-0.58456635
11	0x39cb6d86	0.0003880078
12	0xbe6466a2	-0.22304776
13	0xbaa53683	-0.0012604747
14	0x3e66da05	0.22544105
15	0xbf0c883d	-0.54895383
16	0xbe4c2d64	-0.1993919
17	0x3ee7e3c2	0.45290953
18	0x3e272c3b	0.16325466
19	0xbdee3b85	-0.11632446
20	0x3dcd8203	0.100345634
21	0x3cc9453a	0.024569143
22	0xbe4c26d0	-0.19936681
23	0x3ea6e14c	0.32593763
24	0xbef8f69d	-0.4862565
25	0xbcd41c89	-0.025892513
26	0x3dd26a9b	0.1027424
27	0x3e4b79aa	0.1987063
28	0xbd493b73	-0.04912896
29	0xbecb31f2	-0.39686543
30	0xbe1f8d9f	-0.15581368
31	0x3ec619df	0.38691613
32	0xbef69fc4	-0.48168766
33	0xbeb7a750	-0.35869837
34	0x3e7416dc	0.23836845
35	0xbd9648d0	-0.07338107
36	0x3ea78f37	0.32726452
37	0xbeec9d3f	-0.4621372
38	0x3c810f5f	0.0157544
39	0xbed6188a	-0.41815597
40	0xbede1850	-0.43377924
41	0xbe1fd73c	-0.15609449
42	0x3e89bc9a	0.26901704
43	0x3c33049a	0.01092639
44	0xbedadaab	-0.42744955
45	0xbd315309	-0.04329208
46	0x3cd7219d	0.026261145
47	0x3f13da69	0.5775514
48	0x3ea0341c	0.31289756
49	0x3d866b43	0.06563427
50	0xbd21d6b7	-0.03951141
51	0x3e2b32b5	0.16718562
52	0x3ee3cb39	0.44490984
53	0xbdba05fb	-0.09083172
54	0xbe84fa22	-0.25972086
55	0xbef12b2e	-0.47103256
56	0x3e10e96b	0.14151542
57	0x3dc3a936	0.09553759
58	0xbdce5429	-0.10074646
59	0xbe464aaa	-0.1936442
60	0x3eade25b	0.33961758
61	0xbe8de684	-0.27714932
62	0x3c1bcf9a	0.009509945
63	0xbecb15e1	-0.3966513
64	0xbec62fb8	-0.38708282
65	0xbebce147	-0.36890623
66	0x3e8ff835	0.28119054
67	0xbde8f6fe	-0.11375235
68	0xbc76b7fa	-0.015058512
69	0x3f000c44	0.50018716
70	0x3db10f33	0.08645477
71	0xbe5c3df5	-0.2150801
72	0xbe76af70	-0.24090362
73	0xbec872dd	-0.39150134
74	0xbe13183d	-0.14364715
75	0x3dfb40ab	0.12268194
76	0x3f0b279c	0.54357314
77	0x3e6ac7fb	0.22927849
78	0x3d277555	0.04088338
79	0x3e47f5df	0.19527386
80	0xbd063767	-0.03276768
81	0x3ebe93a1	0.37222007
82	0xbe9fcacf	-0.31209418
83	0xbea3b596	-0.31974477
84	0x3dd9ea2a	0.106403664
85	0x3e8fd225	0.28090015
86	0x3de6a18a	0.1126128
87	0x3e538b86	0.20658693
88	0x3f0113dc	0.5042093
89	0xbecb3844	-0.39691365
90	0x3e37af4b	0.17937963
91	0xbe110f0d	-0.14165898
92	0x3d485c0d	0.04891591
93	0xbe5c26b4	-0.21499139
94	0x3ed152ca	0.40883476
95	0xbc2f8c6d	-0.010714632
96	0xbea4cdd8	-0.32188296
97	0xbe739259	-0.23786296
98	0xbe8cedc6	-0.27525157
99	0x3ebe0c46	0.3711874
100	0x3e48ef9a	0.1962265
101	0x3e957c97	0.29196617
102	0x3e10e075	0.14148124
103	0xbe47c37c	-0.19508165
104	0x3da4eae1	0.08052612
105	0x3ec8afb1	0.39196542
106	0xbeaad25b	-0.33363613
107	0x3dc47d1e	0.09594177
108	0x3ecc4d8c	0.39902914
109	0x3ebf4c51	0.37362912
110	0xbd216d4d	-0.039410878
111	0x3f11419f	0.56740755
112	0xbf002bd7	-0.50066894
113	0xbe4e72f0	-0.20161033
114	0xbdd85a7a	-0.10564132
115	0xbd9e1dbd	-0.07720516
116	0x3e7cd199	0.2468933
117	0xbe80c176	-0.251476
118	0xbd95b654	-0.07310167
119	0xbebc339d	-0.36758128
120	0x3ea2e241	0.31813243
121	0x3e653b5c	0.22385925
122	0xbecaab4a	-0.39583808
123	0xbe6561e9	-0.22400631
124	0x3e43e24d	0.19129296
125	0xbe192cf0	-0.14958549
126	0xbedf8406	-0.43655413
127	0x3dc6efc4	0.097137004
128	0xbcbc74b5	-0.023004869
129	0x3ebc4363	0.36770162
130	0xbe64bf0f	-0.22338508
131	0xbe11f8b4	-0.14255029
132	0xbe8ea114	-0.27857268
133	0xbda481b8	-0.080325544
134	0xbd092e62	-0.0334915
135	0x3ecf8a7c	0.40535343
136	0xbebf1e48	-0.3732779
137	0xbe5a366f	-0.21309827
138	0xbe58f006	-0.21185312
139	0x3e0bea8f	0.13663696
140	0x3ebdf18e	0.37098354
141	0xbe143ef5	-0.14477141
142	0x3e8910b8	0.26770568
143	0x3e9f2b05	0.3108751

conv1.bias f4 [16]
0	0x3de020cb	0.10943755
1	0x3b7ec53a	0.003887488
2	0xbd9483fa	-0.07251735
3	0xbd933a84	-0.07188895
4	0x3dd21db2	0.1025957
5	0x3de51da3	0.111872934
6	0xbd925ce2	-0.07146622
7	0x3dc8c7ba	0.0980372
8	0x3d8fb7ee	0.07017504
9	0xbd863983	-0.06553938
10	0x3de7a197	0.11310118
11	0xbd993493	-0.07480731
12	0x3df391a1	0.11893011
13	0xbd9a1d28	-0.07525092
14	0xbd8fb960	-0.07017779
15	0x3dc75b92	0.097342625

conv2.weight f4 [16, 2]
0	0xbdfee012	-0.12445082
1	0xbf0ec2ed	-0.55766183
2	0xbe5ad6f1	-0.21371056
3	0xbe9e8b41	-0.30965617
4	0x3e1efb02	0.1552544
5	0x3ea97167	0.33094332
6	0xbeb830c1	-0.35974696
7	0x3e7d6801	0.24746706
8	0x3eddb775	0.4330403
9	0xbf0a2f57	-0.53978485
10	0x3e9aeb49	0.30257633
11	0xbcd3aff8	-0.025840744
12	0xbe20ab56	-0.1569036
13	0x3eb38852	0.35064942
14	0x3f131608	0.5745549
15	0xbe9c367a	-0.30510312
16	0xbd87eaa2	-0.066365495
17	0xbe5c82d7	-0.21534286
18	0xbec6120a	-0.38685638
19	0xbe1ecf64	-0.155088
20	0xbd4f0a77	-0.05054709
21	0xbeca847e	-0.3955421
22	0xbe67819d	-0.22608037
23	0x3dd5a0bc	0.10431048
24	0x3f29cc15	0.6632703
25	0x3eb52a3a	0.3538378
26	0xbe10597f	-0.1409664
27	0x3ed224eb	0.4104379
28	0xbdba347b	-0.09092041
29	0x3e29d9fd	0.16587062
30	0x3f0bc11f	0.54591554
31	0xbed176c4	-0.40910923

conv2.bias f4 [2]
0	0x3db899a7	0.09013682
1	0xbdb899a9	-0.09013683
