gcn.pth (torch, 2608 bytes, 4 tensors)

conv1.weight f4 [9, 16]
-0.3097556 -0.5468845 -0.3549824 -0.3737594 0.32723483 -0.46779996 -0.2806186 -0.120940596
-0.33103862 -0.19684446 0.44035932 0.18265837 0.2349214 -0.3670031 -0.41871613 0.46060666
-0.28470835 -0.3193768 0.16685928 -0.57723606 0.3323454 -0.37870446 -0.14180459 -0.14106467
-0.45484218 0.3820307 0.2549726 0.011930704 0.5229536 0.27639294 0.04181021 0.087565035
0.10860376 -0.28661007 -0.09457212 0.11959154 0.31118158 -0.38023078 -0.10901932 -0.15411931
-0.25999212 0.32275236 0.35811636 0.13499714 -0.15099831 -0.44648722 -0.0679876 0.361927
-0.20972565 0.38342133 0.1930014 0.43461043 0.37889877 -0.3395396 0.18088344 0.24384189
-0.4205945 -0.29422894 -0.18881746 -0.054050017 -0.33634645 0.30953237 0.07187545 0.077409774
0.37666398 0.40592152 -0.42017677 0.075900935 -0.45975077 -0.09229142 -0.13770434 -0.052272163
-0.044076674 0.2977814 0.2508099 0.16128275 0.25920138 -0.33368593 -0.5301316 -0.28935593
-0.18129091 -0.26889548 -0.34034884 -0.4701027 0.017096907 -0.16378772 -0.20219794 -0.013500141
0.41258523 0.008838165 -0.31137577 0.19388591 -0.22684635 -0.254879 -0.2672387 -0.3359216
-0.13804683 0.19594732 0.30231097 -0.2204353 -0.08082667 -0.4529174 -0.46304303 -0.08780964
-0.48084876 -0.47267976 -0.22812851 -0.5607758 -0.02399566 -0.32239914 -0.23511481 -0.472345
-0.26781467 0.068137825 0.16916521 -0.06321182 -0.4314945 0.24133891 0.118054435 -0.24173485
-0.17596692 0.31887564 0.15281938 -0.2886633 -0.10190412 -0.18541433 0.18513735 -0.27221543
0.43697202 0.08576026 0.5310284 0.07324878 0.053718 0.023920562 -0.26815462 -0.41834426
0.17741212 -0.5318142 0.18904291 -0.29142702 0.37097052 0.32749623 0.07778679 -0.10884997
00000000: 4998 9ebe 9f00 0cbf 41c0 b5be 645d bfbe
00000010: 538b a73e 7a83 efbe 3ead 8fbe b4af f7bd
00000020: e57d a9be 9891 49be c776 e13e cc0a 3b3e
00000030: 3c8f 703e d5e7 bbbe f661 d6be a3d4 eb3e
00000040: 4bc5 91be 5b85 a3be 29dd 2a3e bec5 13bf
00000050: 2d29 aa3e 8de5 c1be 3935 11be 4273 10be
00000060: 13e1 e8be 8799 c33e c58b 823e 0079 433c
00000070: 4ae0 053f 6083 8d3e 2f41 2b3d 4c55 b33d
00000080: a66b de3d 8ebe 92be 07af c1bd 69ec f43d
00000090: 3153 9f3e 9cad c2be 8545 dfbd 74d1 1dbe
000000a0: b01d 85be cc3f a53e 075b b73e b13c 0a3e
000000b0: 4d9f 1abe f999 e4be 153d 8bbd 7f4e b93e
000000c0: 52c2 56be cd4f c43e 29a2 453e 4285 de3e
000000d0: 05ff c13e 22d8 adbe 8239 393e b0b1 793e
000000e0: 2a58 d7be 2da5 96be 5d59 41be 8d63 5dbd
000000f0: 9a35 acbe 077b 9e3e 7033 933d 0489 9e3d
00000100: 1ada c03e f2d4 cf3e 6921 d7be f371 9b3d
00000110: 7464 ebbe 4903 bdbd 5e02 0dbe 561b 56bd
00000120: be89 34bd ce76 983e 286a 803e 4e27 253e
00000130: 0bb6 843e e2d8 aabe b4b6 07bf 7626 94be
00000140: 53a4 39be abac 89be 3442 aebe 4db1 f0be
00000150: d00e 8c3c f8b7 27be fa0c 4fbe b22f 5dbc
00000160: 5f3e d33e f3cd 103c a56c 9fbe 078a 463e
00000170: 694a 68be 807f 82be 83d3 88be eafd abbe
00000180: 265c 0dbe 6aa6 483e 81c8 9a3e cbb9 61be
00000190: 7488 a5bd cae4 e7be fa13 edbe 8ad5 b3bd
000001a0: cf31 f6be 1503 f2be 859a 69be 018f 0fbf
000001b0: 8c92 c4bc 8011 a5be f0c1 70be 34d7 f1be
000001c0: 011f 89be d88b 8b3d a539 2d3e 3375 81bd
000001d0: d9ec dcbe 8c21 773e 86c6 f13d 5789 77be
000001e0: ac30 34be ab43 a33e af7c 1c3e adcb 93be
000001f0: 1bb3 d0bd 41dd 3dbe a594 3d3e d25f 8bbe
00000200: ccba df3e 13a3 af3d 7af1 073f 7503 963d
00000210: 6807 5c3d 0ef5 c33c 904b 89be 3831 d6be
00000220: 86ab 353e fa24 08bf 7794 413e ec35 95be
00000230: d9ef bd3e 96ad a73e ae4e 9f3d bcec debd

conv1.bias f4 [16]
0.027646562 -0.16984743 -0.13338728 -0.1406287 0.0 -0.2000371 -0.12874553 0.025913151
0.031462125 0.12980075 0.11426063 -0.081878714 0.05882189 0.03973454 -0.042833507 0.0
00000000: 0b7b e23c 7cec 2dbe ad96 08be f800 10be
00000010: 0000 0000 87d6 4cbe ded5 03be d147 d43c
00000020: 6ede 003d 7dea 043e 7a01 ea3d 07b0 a7bd
00000030: 39ef 703d afc0 223d 3072 2fbd 0000 0000

conv2.weight f4 [16, 2]
0.13501689 0.47438294 -0.4173295 -0.35905617 -0.25448102 0.2121097 -0.10217652 0.29795855
0.014451802 -0.35746425 -0.46998692 -0.39843512 0.12136535 0.2560891 0.009184108 -0.06580222
0.105788246 0.011459885 0.1149217 -0.18228304 0.29333782 -0.03831891 0.004877233 0.35894945
0.13928264 -0.41389832 -0.23143856 -0.4631564 0.04854773 -0.0065402235 0.36952382 0.3961373
00000000: de41 0a3e 52e2 f23e 36ac d5be 36d6 b7be
00000010: 564b 82be 4933 593e ec41 d1bd 068e 983e
00000020: 40c7 6c3c 8e05 b7be 20a2 f0be b0ff cbbe
00000030: 668e f83d 1c1e 833e f178 163c 50c3 86bd
00000040: 82a7 d83d 3ec2 3b3c 115c eb3d 68a8 3abe
00000050: 6030 963e 4af4 1cbd 32d1 9f3b 39c8 b73e
00000060: 1ca0 0e3e 7bea d3be 3bfe 6cbe d622 edbe
00000070: fcd9 463d 5f4f d6bb 3a32 bd3e 82d2 ca3e

conv2.bias f4 [2]
0.15834534 -0.15834534
00000000: 4825 223e 4825 22be
